…
       batch_size=256, 
       epochs=2, 
       validation_data=([val.member_id, val.artifact_id, val_onehot_encoded_mt, val_onehot_encoded_mr, val_onehot_encoded_sub], val_onehot_encoded_quartile)
      )
</code></pre>

<p>Here's the summary of the model:</p>

<pre><code>____________________________________________________________________________________________________
Layer (type)                     Output Shape          Param #     Connected to                     
====================================================================================================
user_in (InputLayer)             (None, 1)             0                                            
____________________________________________________________________________________________________
artifact_in (InputLayer)         (None, 1)             0                                            
____________________________________________________________________________________________________
embedding_9 (Embedding)          (None, 1, 20)         5902380     user_in[0][0]                    
____________________________________________________________________________________________________
embedding_10 (Embedding)         (None, 1, 20)         594200      artifact_in[0][0]                
____________________________________________________________________________________________________
merge_25 (Merge)                 (None, 1, 40)         0           embedding_9[0][0]                
                                                                   embedding_10[0][0]               
____________________________________________________________________________________________________
flatten_7 (Flatten)              (None, 40)            0           merge_25[0][0]                   
____________________________________________________________________________________________________
input_13 (InputLayer)            (None, 31)            0                                            
____________________________________________________________________________________________________
merge_26 (Merge)                 (None, 71)            0           flatten_7[0][0]                  
                                                                   input_13[0][0]                   
____________________________________________________________________________________________________
input_14 (InputLayer)            (None, 1)             0                                            
____________________________________________________________________________________________________
merge_27 (Merge)                 (None, 72)            0           merge_26[0][0]                   
                                                                   input_14[0][0]                   
____________________________________________________________________________________________________
input_15 (InputLayer)            (None, 24)            0                                            
____________________________________________________________________________________________________
merge_28 (Merge)                 (None, 96)            0           merge_27[0][0]                   
                                                                   input_15[0][0]                   
____________________________________________________________________________________________________
dense_13 (Dense)                 (None, 10)            970         merge_28[0][0]                   
____________________________________________________________________________________________________
dense_14 (Dense)                 (None, 3)             33          dense_13[0][0]                   
====================================================================================================
Total params: 6,497,583
Trainable params: 6,497,583
Non-trainable params: 0
_____________________________
</code></pre>

<p>But on the <code>fit</code> statement, I get the following error:</p>

<pre><code>---------------------------------------------------------------------------
…
<p>It looks like my initial choice of random weights has a big impact on my end result after training. The accuracy (i.e. error) of my neural net is varying a lot depending on my initial choice of random weights.</p>

<p>I'm starting with a 2 x 2 x 1 neural net, with a bias in the input and hidden layers, using the sigmoid activation function, with a learning rate of 0.5. Below my initial setup, with weights chosen randomly:</p>

<p><a href=""https://i.stack.imgur.com/4tv2V.jpg"" rel=""nofollow noreferrer""><img src=""https://i.stack.imgur.com/4tv2V.jpg"" alt=""enter image description here""></a>  </p>

<p>The initial performance is bad, as one would expect:</p>

<pre><code>Input | Output | Expected | Error
(0,0)   0.8845      0       39.117%
(1,1)   0.1134      0       0.643%
(1,0)   0.7057      1       4.3306%
(0,1)   0.1757      1       33.9735%
</code></pre>

<p>Then I proceed to train my network through backpropagation, feeding the XOR training set 100,000 times. After training is complete, my new weights are:</p>

<p><a href=""https://i.stack.imgur.com/bPMix.jpg"" rel=""nofollow noreferrer""><img src=""https://i.stack.imgur.com/bPMix.jpg"" alt=""enter image description here""></a> </p>

<p>And the performance improved to:</p>

<pre><code>Input | Output | Expected | Error
(0,0)   0.0103      0       0.0053%
(1,1)   0.0151      0       0.0114%
(1,0)   0.9838      1       0.0131%
(0,1)   0.9899      1       0.0051%
</code></pre>

<p><strong>So my questions are:</strong></p>

<ol>
<li><p>Has anyone figured out the best weights for a XOR neural network with that configuration (i.e. 2 x 2 x 1 with bias) ?</p></li>
<li><p>Why my initial choice of random weights make a big difference to my end result? I was lucky on the example above but depending on my initial choice of random weights I get, after training, errors as big as 50%, which is very bad.</p></li>
…
<p>Most CNN examples I've seen have one of more pooling layers, and the explaination I've seen for them is to reduce the number of training elements, but also to allow for some locational independance of an element (e.g. I know this is an eye, and can appear anywhere in the image).</p>

<p>In my case location <em>is</em> important and I want my CNN to be aware of that. ie. the presence of a pattern at a specific location in the image means something very specific compared to if that feature or pattern appears elsewhere.</p>

<p>At the moment my network looks like this (taken from an example somewhere):</p>

<pre><code>_________________________________________________________________
Layer (type)                 Output Shape              Param #   
=================================================================
conv2d_1 (Conv2D)            (None, 196, 178, 32)      896       
_________________________________________________________________
activation_1 (Activation)    (None, 196, 178, 32)      0         
_________________________________________________________________
max_pooling2d_1 (MaxPooling2 (None, 98, 89, 32)        0         
_________________________________________________________________
conv2d_2 (Conv2D)            (None, 96, 87, 32)        9248      
_________________________________________________________________
activation_2 (Activation)    (None, 96, 87, 32)        0         
_________________________________________________________________
max_pooling2d_2 (MaxPooling2 (None, 48, 43, 32)        0         
_________________________________________________________________
conv2d_3 (Conv2D)            (None, 46, 41, 64)        18496     
_________________________________________________________________
activation_3 (Activation)    (None, 46, 41, 64)        0         
_________________________________________________________________
max_pooling2d_3 (MaxPooling2 (None, 23, 20, 64)        0         
_________________________________________________________________
flatten_1 (Flatten)          (None, 29440)             0         
_________________________________________________________________
dense_1 (Dense)              (None, 32)                942112    
_________________________________________________________________
activation_4 (Activation)    (None, 32)                0         
_________________________________________________________________
dropout_1 (Dropout)          (None, 32)                0         
_________________________________________________________________
dense_2 (Dense)              (None, 3)                 99        
_________________________________________________________________
activation_5 (Activation)    (None, 3)                 0         
=================================================================
Total params: 970,851
Trainable params: 970,851
Non-trainable params: 0
_________________________________________________________________
</code></pre>

<p>The 'images' I'm training on are 180 x 180 x 3 pixels and each channel contains a different set of raw data.</p>

<p>What strategies are there to improve my CNN to deal with this? I have tried simply removing some of the pooling layers, but that greatly increased memory and training time and didn't seem to really help.</p>
…
